Model: "sequential"
_________________________________________________________________
Layer (type)                 Output Shape              Param #   
=================================================================
flatten (Flatten)            (None, 784)               0         
_________________________________________________________________
dense (Dense)                (None, 128)               100480    
_________________________________________________________________
dropout (Dropout)            (None, 128)               0         
_________________________________________________________________
dense_1 (Dense)              (None, 128)               16512     
_________________________________________________________________
dropout_1 (Dropout)          (None, 128)               0         
_________________________________________________________________
dense_2 (Dense)              (None, 80)                10320     
=================================================================
Total params: 127,312
Trainable params: 127,312
Non-trainable params: 0
_________________________________________________________________
Epoch 1/16
   1/1314 [..............................] - ETA: 0s - loss: 4.2710 - accuracy: 0.0273   3/
…
